…
    "print(Y_train.shape)\n",
    "print(X_test.shape)\n",
    "print(Y_test.shape)"
   ]
  },
  {
   "cell_type": "code",
   "execution_count": 20,
   "id": "d93169e8-016c-4942-803f-ef1426daedb4",
   "metadata": {},
   "outputs": [
    {
     "name": "stdout",
     "output_type": "stream",
     "text": [
      "Model: \"sequential_4\"\n",
      "_________________________________________________________________\n",
      " Layer (type)                Output Shape              Param #   \n",
      "=================================================================\n",
      " conv2d_16 (Conv2D)          (None, 48, 48, 25)        250       \n",
      "                                                                 \n",
      " batch_normalization_24 (Bat  (None, 48, 48, 25)       100       \n",
      " chNormalization)                                                \n",
      "                                                                 \n",
      " max_pooling2d_16 (MaxPoolin  (None, 24, 24, 25)       0         \n",
      " g2D)                                                            \n",
      "                                                                 \n",
      " dropout_24 (Dropout)        (None, 24, 24, 25)        0         \n",
      "                                                                 \n",
      " conv2d_17 (Conv2D)          (None, 24, 24, 50)        31300     \n",
      "                                                                 \n",
      " batch_normalization_25 (Bat  (None, 24, 24, 50)       200       \n",
      " chNormalization)                                                \n",
      "                                                                 \n",
      " max_pooling2d_17 (MaxPoolin  (None, 12, 12, 50)       0         \n",
      " g2D)                                                            \n",
      "                                                                 \n",
      " dropout_25 (Dropout)        (None, 12, 12, 50)        0         \n",
      "                                                                 \n",
      " conv2d_18 (Conv2D)          (None, 12, 12, 200)       90200     \n",
      "                                                                 \n",
      " batch_normalization_26 (Bat  (None, 12, 12, 200)      800       \n",
      " chNormalization)                                                \n",
      "                                                                 \n",
      " max_pooling2d_18 (MaxPoolin  (None, 6, 6, 200)        0         \n",
      " g2D)                                                            \n",
      "                                                                 \n",
      " dropout_26 (Dropout)        (None, 6, 6, 200)         0         \n",
      "                                                                 \n",
      " conv2d_19 (Conv2D)          (None, 6, 6, 200)         360200    \n",
      "                                                                 \n",
      " batch_normalization_27 (Bat  (None, 6, 6, 200)        800       \n",
      " chNormalization)                                                \n",
      "                                                                 \n",
      " max_pooling2d_19 (MaxPoolin  (None, 3, 3, 200)        0         \n",
      " g2D)                                                            \n",
      "                                                                 \n",
      " dropout_27 (Dropout)        (None, 3, 3, 200)         0         \n",
      "                                                                 \n",
      " flatten_4 (Flatten)         (None, 1800)              0         \n",
      "                                                                 \n",
      " dense_12 (Dense)            (None, 100)               180100    \n",
      "                                                                 \n",
      " batch_normalization_28 (Bat  (None, 100)              400       \n",
      " chNormalization)                                                \n",
      "                                                                 \n",
      " dropout_28 (Dropout)        (None, 100)               0         \n",
      "                                                                 \n",
      " dense_13 (Dense)            (None, 200)               20200     \n",
      "                                                                 \n",
      " batch_normalization_29 (Bat  (None, 200)              800       \n",
      " chNormalization)                                                \n",
      "                                                                 \n",
      " dropout_29 (Dropout)        (None, 200)               0         \n",
      "                                                                 \n",
      " dense_14 (Dense)            (None, 6)                 1206      \n",
      "                                                                 \n",
      "=================================================================\n",
      "Total params: 686,556\n",
      "Trainable params: 685,006\n",
      "Non-trainable params: 1,550\n",
      "_________________________________________________________________\n"
     ]
    }
   ],
   "source": [
    "model = Sequential()\n",
…
      "2023-12-11 16:00:37.032768: I tensorflow/core/common_runtime/process_util.cc:146] Creating new thread pool with default inter op setting: 2. Tune using inter_op_parallelism_threads for best performance.\n"
     ]
    },
    {
     "name": "stdout",
     "output_type": "stream",
     "text": [
      "Model: \"sequential\"\n",
      "_________________________________________________________________\n",
      " Layer (type)                Output Shape              Param #   \n",
      "=================================================================\n",
      " conv2d (Conv2D)             (None, 46, 46, 25)        250       \n",
      "                                                                 \n",
      " batch_normalization (BatchN  (None, 46, 46, 25)       100       \n",
      " ormalization)                                                   \n",
      "                                                                 \n",
      " max_pooling2d (MaxPooling2D  (None, 23, 23, 25)       0         \n",
      " )                                                               \n",
      "                                                                 \n",
      " dropout (Dropout)           (None, 23, 23, 25)        0         \n",
      "                                                                 \n",
      " conv2d_1 (Conv2D)           (None, 20, 20, 50)        20050     \n",
      "                                                                 \n",
      " batch_normalization_1 (Batc  (None, 20, 20, 50)       200       \n",
      " hNormalization)                                                 \n",
      "                                                                 \n",
      " max_pooling2d_1 (MaxPooling  (None, 10, 10, 50)       0         \n",
      " 2D)                                                             \n",
      "                                                                 \n",
      " dropout_1 (Dropout)         (None, 10, 10, 50)        0         \n",
      "                                                                 \n",
      " conv2d_2 (Conv2D)           (None, 8, 8, 150)         67650     \n",
      "                                                                 \n",
      " batch_normalization_2 (Batc  (None, 8, 8, 150)        600       \n",
      " hNormalization)                                                 \n",
      "                                                                 \n",
      " max_pooling2d_2 (MaxPooling  (None, 4, 4, 150)        0         \n",
      " 2D)                                                             \n",
      "                                                                 \n",
      " dropout_2 (Dropout)         (None, 4, 4, 150)         0         \n",
      "                                                                 \n",
      " conv2d_3 (Conv2D)           (None, 2, 2, 200)         270200    \n",
      "                                                                 \n",
      " batch_normalization_3 (Batc  (None, 2, 2, 200)        800       \n",
      " hNormalization)                                                 \n",
      "                                                                 \n",
      " max_pooling2d_3 (MaxPooling  (None, 1, 1, 200)        0         \n",
      " 2D)                                                             \n",
      "                                                                 \n",
      " dropout_3 (Dropout)         (None, 1, 1, 200)         0         \n",
      "                                                                 \n",
      " flatten (Flatten)           (None, 200)               0         \n",
      "                                                                 \n",
      " dense (Dense)               (None, 100)               20100     \n",
      "                                                                 \n",
      " batch_normalization_4 (Batc  (None, 100)              400       \n",
      " hNormalization)                                                 \n",
      "                                                                 \n",
      " dropout_4 (Dropout)         (None, 100)               0         \n",
      "                                                                 \n",
      " dense_1 (Dense)             (None, 200)               20200     \n",
      "                                                                 \n",
      " batch_normalization_5 (Batc  (None, 200)              800       \n",
      " hNormalization)                                                 \n",
      "                                                                 \n",
      " dropout_5 (Dropout)         (None, 200)               0         \n",
      "                                                                 \n",
      " dense_2 (Dense)             (None, 6)                 1206      \n",
      "                                                                 \n",
      "=================================================================\n",
      "Total params: 402,556\n",
      "Trainable params: 401,106\n",
      "Non-trainable params: 1,450\n",
      "_________________________________________________________________\n"
     ]
    }
   ],
   "source": [
    "model = Sequential()\n",
…
   "id": "6a06f5c8-31d5-4d8b-a061-4bd77850baf7",
   "metadata": {},
   "source": [
    "### CNN 3"
   ]
  },
  {
   "cell_type": "code",
   "execution_count": 13,
   "id": "5adea319-3500-4fab-9d39-b4b26f469ad4",
   "metadata": {},
   "outputs": [
    {
     "name": "stdout",
     "output_type": "stream",
     "text": [
      "Model: \"sequential_1\"\n",
      "_________________________________________________________________\n",
      " Layer (type)                Output Shape              Param #   \n",
      "=================================================================\n",
      " conv2d_4 (Conv2D)           (None, 46, 46, 25)        250       \n",
      "                                                                 \n",
      " batch_normalization_6 (Batc  (None, 46, 46, 25)       100       \n",
      " hNormalization)                                                 \n",
      "                                                                 \n",
      " max_pooling2d_4 (MaxPooling  (None, 23, 23, 25)       0         \n",
      " 2D)                                                             \n",
      "                                                                 \n",
      " dropout_6 (Dropout)         (None, 23, 23, 25)        0         \n",
      "                                                                 \n",
      " conv2d_5 (Conv2D)           (None, 20, 20, 50)        20050     \n",
      "                                                                 \n",
      " batch_normalization_7 (Batc  (None, 20, 20, 50)       200       \n",
      " hNormalization)                                                 \n",
      "                                                                 \n",
      " max_pooling2d_5 (MaxPooling  (None, 10, 10, 50)       0         \n",
      " 2D)                                                             \n",
      "                                                                 \n",
      " dropout_7 (Dropout)         (None, 10, 10, 50)        0         \n",
      "                                                                 \n",
      " conv2d_6 (Conv2D)           (None, 8, 8, 150)         67650     \n",
      "                                                                 \n",
      " batch_normalization_8 (Batc  (None, 8, 8, 150)        600       \n",
      " hNormalization)                                                 \n",
      "                                                                 \n",
      " max_pooling2d_6 (MaxPooling  (None, 4, 4, 150)        0         \n",
      " 2D)                                                             \n",
      "                                                                 \n",
      " dropout_8 (Dropout)         (None, 4, 4, 150)         0         \n",
      "                                                                 \n",
      " conv2d_7 (Conv2D)           (None, 2, 2, 150)         202650    \n",
      "                                                                 \n",
      " batch_normalization_9 (Batc  (None, 2, 2, 150)        600       \n",
      " hNormalization)                                                 \n",
      "                                                                 \n",
      " max_pooling2d_7 (MaxPooling  (None, 1, 1, 150)        0         \n",
      " 2D)                                                             \n",
      "                                                                 \n",
      " dropout_9 (Dropout)         (None, 1, 1, 150)         0         \n",
      "                                                                 \n",
      " flatten_1 (Flatten)         (None, 150)               0         \n",
      "                                                                 \n",
      " dense_3 (Dense)             (None, 100)               15100     \n",
      "                                                                 \n",
      " batch_normalization_10 (Bat  (None, 100)              400       \n",
      " chNormalization)                                                \n",
      "                                                                 \n",
      " dropout_10 (Dropout)        (None, 100)               0         \n",
      "                                                                 \n",
      " dense_4 (Dense)             (None, 200)               20200     \n",
      "                                                                 \n",
      " batch_normalization_11 (Bat  (None, 200)              800       \n",
      " chNormalization)                                                \n",
      "                                                                 \n",
      " dropout_11 (Dropout)        (None, 200)               0         \n",
      "                                                                 \n",
      " dense_5 (Dense)             (None, 6)                 1206      \n",
      "                                                                 \n",
      "=================================================================\n",
      "Total params: 329,806\n",
      "Trainable params: 328,456\n",
      "Non-trainable params: 1,350\n",
      "_________________________________________________________________\n"
     ]
    }
   ],
   "source": [
    "model = Sequential()\n",
…
    "print(Y_train.shape)\n",
    "print(X_test.shape)\n",
    "print(Y_test.shape)"
   ]
  },
  {
   "cell_type": "code",
   "execution_count": 20,
   "id": "b68282af-31ab-4633-8f32-a32fd45a43b7",
   "metadata": {},
   "outputs": [
    {
     "name": "stdout",
     "output_type": "stream",
     "text": [
      "Model: \"sequential_2\"\n",
      "_________________________________________________________________\n",
      " Layer (type)                Output Shape              Param #   \n",
      "=================================================================\n",
      " conv2d_9 (Conv2D)           (None, 46, 46, 32)        320       \n",
      "                                                                 \n",
      " dropout_8 (Dropout)         (None, 46, 46, 32)        0         \n",
      "                                                                 \n",
      " conv2d_10 (Conv2D)          (None, 42, 42, 64)        51264     \n",
      "                                                                 \n",
      " max_pooling2d_6 (MaxPooling  (None, 21, 21, 64)       0         \n",
      " 2D)                                                             \n",
      "                                                                 \n",
      " dropout_9 (Dropout)         (None, 21, 21, 64)        0         \n",
      "                                                                 \n",
      " conv2d_11 (Conv2D)          (None, 18, 18, 128)       131200    \n",
      "                                                                 \n",
      " max_pooling2d_7 (MaxPooling  (None, 9, 9, 128)        0         \n",
      " 2D)                                                             \n",
      "                                                                 \n",
      " conv2d_12 (Conv2D)          (None, 7, 7, 64)          73792     \n",
      "                                                                 \n",
      " max_pooling2d_8 (MaxPooling  (None, 3, 3, 64)         0         \n",
      " 2D)                                                             \n",
      "                                                                 \n",
      " conv2d_13 (Conv2D)          (None, 2, 2, 32)          8224      \n",
      "                                                                 \n",
      " max_pooling2d_9 (MaxPooling  (None, 1, 1, 32)         0         \n",
      " 2D)                                                             \n",
      "                                                                 \n",
      " dropout_10 (Dropout)        (None, 1, 1, 32)          0         \n",
      "                                                                 \n",
      " flatten_2 (Flatten)         (None, 32)                0         \n",
      "                                                                 \n",
      " dense_7 (Dense)             (None, 256)               8448      \n",
      "                                                                 \n",
      " dropout_11 (Dropout)        (None, 256)               0         \n",
      "                                                                 \n",
      " dense_8 (Dense)             (None, 128)               32896     \n",
      "                                                                 \n",
      " dropout_12 (Dropout)        (None, 128)               0         \n",
      "                                                                 \n",
      " dense_9 (Dense)             (None, 7)                 903       \n",
      "                                                                 \n",
      " dropout_13 (Dropout)        (None, 7)                 0         \n",
      "                                                                 \n",
      "=================================================================\n",
      "Total params: 307,047\n",
      "Trainable params: 307,047\n",
      "Non-trainable params: 0\n",
      "_________________________________________________________________\n"
     ]
    }
   ],
   "source": [
    "callback = tf.keras.callbacks.EarlyStopping(monitor='loss', patience=3, min_delta=0.005)\n",
…
    "model.add(layers.Dropout(rate=0.10))\n",
    "\n",
    "model.summary()"
   ]
  },
  {
   "cell_type": "code",
   "execution_count": 10,
   "id": "78cbfb38-86cc-45b8-9727-a67e88469d05",
   "metadata": {},
   "outputs": [
    {
     "name": "stdout",
     "output_type": "stream",
     "text": [
      "Model: \"sequential_1\"\n",
      "_________________________________________________________________\n",
      " Layer (type)                Output Shape              Param #   \n",
      "=================================================================\n",
      " conv2d_5 (Conv2D)           (None, 44, 44, 32)        832       \n",
      "                                                                 \n",
      " max_pooling2d_4 (MaxPooling  (None, 22, 22, 32)       0         \n",
      " 2D)                                                             \n",
      "                                                                 \n",
      " conv2d_6 (Conv2D)           (None, 20, 20, 64)        18496     \n",
      "                                                                 \n",
      " max_pooling2d_5 (MaxPooling  (None, 6, 6, 64)         0         \n",
      " 2D)                                                             \n",
      "                                                                 \n",
      " conv2d_7 (Conv2D)           (None, 4, 4, 64)          36928     \n",
      "                                                                 \n",
      " conv2d_8 (Conv2D)           (None, 2, 2, 32)          18464     \n",
      "                                                                 \n",
      " flatten_1 (Flatten)         (None, 128)               0         \n",
      "                                                                 \n",
      " dense_3 (Dense)             (None, 256)               33024     \n",
      "                                                                 \n",
      " dropout_6 (Dropout)         (None, 256)               0         \n",
      "                                                                 \n",
      " dense_4 (Dense)             (None, 128)               32896     \n",
      "                                                                 \n",
      " dropout_7 (Dropout)         (None, 128)               0         \n",
      "                                                                 \n",
      " dense_5 (Dense)             (None, 32)                4128      \n",
      "                                                                 \n",
      " dense_6 (Dense)             (None, 7)                 231       \n",
      "                                                                 \n",
      "=================================================================\n",
      "Total params: 144,999\n",
      "Trainable params: 144,999\n",
      "Non-trainable params: 0\n",
      "_________________________________________________________________\n"
     ]
    }
   ],
   "source": [
    "callback = tf.keras.callbacks.EarlyStopping(monitor='loss', patience=3, min_delta=0.005)\n",
…
      "2023-12-11 12:18:43.319837: I tensorflow/core/common_runtime/process_util.cc:146] Creating new thread pool with default inter op setting: 2. Tune using inter_op_parallelism_threads for best performance.\n"
     ]
    },
    {
     "name": "stdout",
     "output_type": "stream",
     "text": [
      "Model: \"sequential\"\n",
      "_________________________________________________________________\n",
      " Layer (type)                Output Shape              Param #   \n",
      "=================================================================\n",
      " conv2d (Conv2D)             (None, 48, 48, 32)        320       \n",
      "                                                                 \n",
      " batch_normalization (BatchN  (None, 48, 48, 32)       128       \n",
      " ormalization)                                                   \n",
      "                                                                 \n",
      " max_pooling2d (MaxPooling2D  (None, 24, 24, 32)       0         \n",
      " )                                                               \n",
      "                                                                 \n",
      " dropout (Dropout)           (None, 24, 24, 32)        0         \n",
      "                                                                 \n",
      " conv2d_1 (Conv2D)           (None, 24, 24, 64)        51264     \n",
      "                                                                 \n",
      " batch_normalization_1 (Batc  (None, 24, 24, 64)       256       \n",
      " hNormalization)                                                 \n",
      "                                                                 \n",
      " max_pooling2d_1 (MaxPooling  (None, 12, 12, 64)       0         \n",
      " 2D)                                                             \n",
      "                                                                 \n",
      " dropout_1 (Dropout)         (None, 12, 12, 64)        0         \n",
      "                                                                 \n",
      " conv2d_2 (Conv2D)           (None, 12, 12, 256)       147712    \n",
      "                                                                 \n",
      " batch_normalization_2 (Batc  (None, 12, 12, 256)      1024      \n",
      " hNormalization)                                                 \n",
      "                                                                 \n",
      " max_pooling2d_2 (MaxPooling  (None, 6, 6, 256)        0         \n",
      " 2D)                                                             \n",
      "                                                                 \n",
      " dropout_2 (Dropout)         (None, 6, 6, 256)         0         \n",
      "                                                                 \n",
      " conv2d_3 (Conv2D)           (None, 6, 6, 256)         590080    \n",
      "                                                                 \n",
      " batch_normalization_3 (Batc  (None, 6, 6, 256)        1024      \n",
      " hNormalization)                                                 \n",
      "                                                                 \n",
      " max_pooling2d_3 (MaxPooling  (None, 3, 3, 256)        0         \n",
      " 2D)                                                             \n",
      "                                                                 \n",
      " dropout_3 (Dropout)         (None, 3, 3, 256)         0         \n",
      "                                                                 \n",
      " flatten (Flatten)           (None, 2304)              0         \n",
      "                                                                 \n",
      " dense (Dense)               (None, 128)               295040    \n",
      "                                                                 \n",
      " batch_normalization_4 (Batc  (None, 128)              512       \n",
      " hNormalization)                                                 \n",
      "                                                                 \n",
      " dropout_4 (Dropout)         (None, 128)               0         \n",
      "                                                                 \n",
      " dense_1 (Dense)             (None, 256)               33024     \n",
      "                                                                 \n",
      " batch_normalization_5 (Batc  (None, 256)              1024      \n",
      " hNormalization)                                                 \n",
      "                                                                 \n",
      " dropout_5 (Dropout)         (None, 256)               0         \n",
      "                                                                 \n",
      " dense_2 (Dense)             (None, 6)                 1542      \n",
      "                                                                 \n",
      "=================================================================\n",
      "Total params: 1,122,950\n",
      "Trainable params: 1,120,966\n",
      "Non-trainable params: 1,984\n",
      "_________________________________________________________________\n"
     ]
    }
   ],
   "source": [
    "model = Sequential()\n",
…
